CNN_EMULATOR/app/src/main/assets/final.pt (torch, 215948 bytes, 4 tensors)

weight f4 [196, 6, 16]
000000 46 90 b5 3c 0e d6 c1 3c c2 75 a5 3c 83 00 1e 3c
       0.022163521 0.02366164 0.020197753 0.009643677
000010 04 33 93 bb 20 15 d4 bc 0d 29 7d bb 0c 8b e2 bc
       -0.0044921655 -0.02588898 -0.0038629205 -0.027654193
000020 88 78 69 3c 0b 87 bd bc 27 61 f6 ba 66 d0 11 bc
       0.014249928 -0.023135683 -0.0018797264 -0.008899784
000030 9a 62 3f 3c 92 71 3c bc 13 c3 83 bc 39 14 e0 3c
       0.011681223 -0.011501687 -0.01608423 0.027353393
000040 a6 60 72 3a 33 0c 46 3b f8 5a 31 3b 0e 3f a6 ba
       0.0009245969 0.0030219674 0.0027062278 -0.0012683587
000050 de 90 9b bb 5a 3d b2 bb 74 1d 47 bb 3d 94 d0 3a
       -0.004747494 -0.0054394426 -0.0030382546 0.0015913319
000060 da 1d 9e 3b e0 e6 89 3b 76 0e 2f 3b 39 3e c5 3a
       0.004825336 0.0042084306 0.00267115 0.0015048451
000070 c9 a2 e7 b9 83 08 2d ba 06 2e 90 ba 17 eb df ba
       -0.00044181038 -0.00066006946 -0.0011000044 -0.0017083612
000080 b9 9a 9f 3b bb 44 71 3b 8b ae 1b 3b d9 17 92 3b
       0.0048707393 0.0036814648 0.0023755159 0.0044584093
000090 8d a6 f3 3b d8 2c 2d 3c f7 34 05 3c 09 d3 55 3b
       0.007435626 0.010569774 0.008130304 0.0032627007
0000a0 56 4e 0b bb ec 7d a1 bb 8f 24 84 bb 51 be 37 ba
       -0.0021256409 -0.004928341 -0.0040326784 -0.00070092554
0000b0 44 ef 32 3b e6 65 b1 3b 6f da 93 3b c2 2e 02 3b
       0.0027303258 0.0054137586 0.0045121233 0.0019864296
0000c0 fc dc 85 bc 3f f1 7d bc 6c b1 85 bc bd 1c 17 bc
       -0.016340725 -0.015499412 -0.016319953 -0.00922316
0000d0 55 a6 1f 3a 85 46 20 3c b4 a0 89 3c f6 63 93 3c
       0.0006090154 0.009782438 0.016800262 0.017992001
0000e0 d6 2f 77 3c 37 3f 0a 3c c1 da cc 3b 03 f2 81 3b
       0.015087089 0.008437923 0.0062516634 0.0039656176
0000f0 e7 e4 de bb 01 1a 9e bc 84 8a 01 bd e2 0f 06 bd
       -0.0068021896 -0.019299509 -0.03162624 -0.03272999
000100 d7 33 ad bc 59 49 40 bc 38 e3 97 ba ac da 0a 3c
       -0.021142883 -0.011736237 -0.0011588102 0.008474987
000110 f5 27 66 3c b9 24 46 3c 4b 7e a7 3b 8d 06 58 3b
       0.014047612 0.012093716 0.005111491 0.003296289
000120 14 48 a2 3b 96 96 ec 3b fb 11 45 3c 3a f7 51 3c
       0.00495244 0.0072200997 0.012028213 0.012815291
000130 ee e8 b4 3b 8e 0b 0a bc 28 b1 b3 bc a4 7b e5 bc
       0.0055209314 -0.008425606 -0.02193506 -0.028013058
000140 c4 3c ec bc cb a0 cd bc 2b 19 9a bc f3 f2 28 bc
       -0.028837569 -0.025101086 -0.01881083 -0.01031183
000150 6f 0b 90 ba 7f 58 45 3c f0 54 cc 3c b2 14 07 3d
       -0.0010989736 0.012045025 0.024942845 0.03297872
000160 0f e5 10 3d dc ed fc 3c e5 2e a0 3c 7e 0a 64 3a
       0.035374697 0.030875139 0.019553611 0.0008699073
000170 d5 a1 8a bc 4e 14 cb bc c2 af b7 bc b5 ca b4 bc
       -0.01692287 -0.024789955 -0.022422675 -0.022069314
000180 f9 01 46 3c 97 cf 24 3c 03 40 33 3c ab eb 2e 3c
       0.012085431 0.010059259 0.010940555 0.010676305
000190 d0 8c 2c 3c 64 98 23 3c 29 3e 24 3c e2 27 29 3c
       0.010531619 0.009985063 0.010024586 0.01032445
0001a0 dc 98 2e 3c fa b2 29 3c 75 d2 2c 3c 8f 2a 37 3c
       0.010656562 0.010357613 0.010548224 0.01117958
0001b0 cd 06 31 3c 87 43 23 3c 1e 0b 36 3c 25 36 3e 3c
       0.010804844 0.00996483 0.011111049 0.011609589
0001c0 d4 51 c4 ba e6 8b 9d ba 41 76 9a ba a1 b8 80 ba
       -0.0014978 -0.0012019842 -0.001178451 -0.0009820649
0001d0 5e 28 2d ba 39 e5 9c b9 b4 5e 97 38 e9 58 67 3a
       -0.00066054414 -0.00029925423 7.217881e-05 0.00088251993
0001e0 e1 dd 9d 3a 6d d9 99 3a b3 8c 8e 3a 4d de 96 3a
       0.0012044274 0.0011737772 0.0010875672 0.0011510343
0001f0 45 2e a4 3a 53 dd 89 3a 94 a8 b5 3a 28 0a f6 3a
       0.0012525996 0.001051823 0.0013859444 0.0018771337
000200 b2 0b 76 bb e6 17 67 bb 9d 0a 63 bb 82 53 5f bb
       -0.0037543592 -0.0035262047 -0.0034643777 -0.0034076874
000210 d7 55 50 bb 15 ca 3c bb 85 e2 0a bb 94 1e e0 ba
       -0.0031789446 -0.0028806974 -0.0021192145 -0.0017098957
000220 be c0 9f ba 0a ea 84 ba ee 9d 79 ba c8 53 a1 ba
       -0.0012188179 -0.001014055 -0.00095221295 -0.0012308294
000230 b8 91 c1 ba 8f 56 b1 ba 00 fc 9b ba 36 c3 ae ba
       -0.0014768159 -0.0013529825 -0.0011900663 -0.0013333324
000240 fc 94 b8 38 29 5f 8d ba ee 7c c1 ba 1b 73 ad ba
       8.801554e-05 -0.0010785806 -0.0014761963 -0.0013233157
000250 da 81 e5 ba af 2f 32 bb f0 19 14 bb 0c 78 2e bb
       -0.0017510012 -0.0027189066 -0.0022598468 -0.0026621846
000260 2a 74 14 bb 53 ad 08 bb 5b a1 dd ba 6a e0 c5 ba
       -0.0022652247 -0.0020855262 -0.001690905 -0.0015096788
000270 e3 31 c6 ba 23 a3 72 ba 2a 06 06 ba 3a b8 63 ba
       -0.0015121069 -0.00092558766 -0.0005112613 -0.00086868147
000280 d9 3a 07 3b 45 b1 6c 3a d3 ac 23 3a f1 f4 0f 3a
       0.0020634441 0.0009029101 0.00062437094 0.0005491516
000290 38 66 83 3a d6 52 0a 3b 00 78 14 39 11 03 09 bb
       0.001002497 0.0021106503 0.00014159083 -0.0020906369
0002a0 c3 5c 39 bb 3c b9 23 bb 55 b9 54 bb 7e 11 33 bb
       -0.002828405 -0.0024982234 -0.00324591 -0.0027323659
0002b0 16 ca 12 bb 30 2a bf ba 10 bb a1 ba 3a b1 fb ba
       -0.0022398285 -0.0014584716 -0.0012339074 -0.0019202598
0002c0 1a ac f4 b9 81 45 91 ba a1 f4 7f ba a5 f8 3a ba
       -0.00046667532 -0.0011083336 -0.00097639306 -0.0007132388
0002d0 ff d9 9f b8 a6 b7 be 39 c5 3e be 39 6e 9a 50 3a
       -7.622316e-05 0.00036376453 0.0003628639 0.0007957582
0002e0 0e ad c9 3a 0e 93 d4 3a 08 d6 8c 3a ea 82 74 3a
       0.0015386657 0.0016218142 0.0010744939 0.0009327369
0002f0 34 ff 70 3a 6c 25 8b 3a 40 f8 e1 39 9e 23 07 39
       0.00091933017 0.0010616011 0.00043100305 0.00012887872
000300 a0 d7 2e 3b 97 9c 0a bc 86 e6 1d bc c6 01 59 bc
       0.0026678815 -0.0084601855 -0.009637481 -0.013245052
000310 a4 8d da 3a 1c 03 04 bb c0 63 1e ba 33 9a b8 3b
       0.0016674292 -0.0020143455 -0.00060420856 0.0056336164
000320 1b de 2f ba 3f 4b ee bb 6c c5 ea bb 32 21 28 3c
       -0.00067088165 -0.0072721536 -0.007164648 0.010261821
000330 bd dd 43 3c 06 91 69 ba dc 52 04 bb a0 c5 1e 3c
       0.011954722 -0.0008909855 -0.002019099 0.009690672
000340 19 28 bd ba 27 3e 6e ba 64 49 8a 3a 1a 6e 44 3b
       -0.0014431506 -0.0009088241 0.0010550437 0.0029972852
000350 a1 da 80 3b ba 21 49 3b 22 d9 cb 3a 8a af 94 3a
       0.0039323126 0.0030690269 0.0015552382 0.0011343819
000360 6f d7 f8 3a c0 ee 41 3b ea cc 6b 3b 54 e3 6b 3b
       0.0018985103 0.002959177 0.0035980293 0.0035993652
000370 d5 00 36 3b 75 95 18 3b 1b 14 22 3b 2b 4b 1b 3b
       0.0027771492 0.0023282443 0.0024731222 0.0023695927
000380 d2 13 40 bb f7 3a c7 ba 19 84 80 ba 36 f3 7b ba
       -0.0029308689 -0.0015200068 -0.0009804993 -0.00096111314
000390 17 8f a0 ba 2f d6 b1 ba 9d 25 84 ba f6 e0 0d ba
       -0.0012249675 -0.001356786 -0.001008201 -0.0005412245
0003a0 67 d5 6d 39 8d 51 44 3a d1 a0 8d 39 f5 9f e0 ba
       0.0002268158 0.00074889587 0.00027013433 -0.0017137515
0003b0 e2 23 62 bb 35 58 84 bb d4 dc 4e bb f0 b0 26 bb
       -0.003450625 -0.0040388354 -0.003156473 -0.0025435053
0003c0 65 36 29 bb ec 9b bd b9 ec 62 9c b7 ae df 59 ba
       -0.0025819775 -0.0003616506 -1.8642713e-05 -0.0008311224
0003d0 cd 83 9f ba 2e fd 08 3a 52 89 6b 3b 69 51 bc 3b
       -0.0012170017 0.0005225715 0.0035940004 0.0057470095
0003e0 06 26 c1 3b f2 8b 3e 3b 45 49 51 3a 92 3c 95 3a
       0.0058944253 0.0029075113 0.00079836353 0.0011385849
0003f0 3f 88 52 3b ff d8 84 3b eb 42 ef 3a 05 e4 95 ba
       0.0032124666 0.0040541883 0.0018254196 -0.0011435753

bias f4 [196]
000000 61 32 ed 3b 1c 9b 56 bb 80 85 4c 3c fa fb 4f bc
       0.0072386716 -0.003274626 0.012483001 -0.012694353
000010 0f 3f c7 ba 24 0a 0a 3d 80 e0 4b bc 6b 8e d0 bb
       -0.0015201288 0.033701077 -0.012443662 -0.006364634
000020 fb d9 57 bc 22 fa 65 3c e0 22 82 bc 42 3a 0b bd
       -0.013174529 0.014036687 -0.01588577 -0.033991106
000030 8a 15 e9 b9 1a 45 eb b9 a2 32 3b 3c 88 46 96 bb
       -0.0004445727 -0.00044874178 0.011425646 -0.0045860447
000040 d8 a6 e6 bb 84 39 28 bb 3c 28 68 bc e2 7f 8f bc
       -0.0070389323 -0.0025669048 -0.014169749 -0.017517034
000050 c5 14 cd bb 04 47 18 bc 9e 25 0c 3c 87 50 3d bc
       -0.0062585794 -0.009294275 0.0085538905 -0.011554844
000060 bc b9 8b 39 a9 d4 cc b8 e3 97 14 3b 04 37 0b 3b
       0.0002665053 -9.767089e-05 0.002267354 0.0021242509
000070 19 80 53 bb 44 10 e3 3b c2 60 98 3b 8c cf d4 b9
       -0.0032272397 0.0069294292 0.0046502063 -0.00040590425
000080 a2 f7 78 bc 8f 4c c9 3b 16 08 2f bb 56 64 99 3c
       -0.015195759 0.0061431597 -0.00267077 0.018724602
000090 24 82 2f 3b 5e b4 88 ba 09 6e e6 bb 64 b2 8f bc
       0.002678045 -0.001042973 -0.00703216 -0.017541118
0000a0 29 00 8f 3b 49 d4 fe b8 57 6c 4b ba 41 a6 36 bc
       0.0043640328 -0.00012151205 -0.00077599793 -0.011148036
0000b0 e6 37 5d 3b 13 68 9e 3c bd 83 46 3c 29 72 70 3c
       0.0033755242 0.019336736 0.01211637 0.014675655
0000c0 c4 1d 7e bc 54 54 46 3d 41 4e 4e bc a9 97 04 bc
       -0.015510026 0.048420265 -0.012591899 -0.008092799
0000d0 27 07 01 bc d5 03 bd bb 23 3b 90 bb 7b 71 1f 3c
       -0.00787524 -0.005768279 -0.004401581 0.009731646
0000e0 f8 32 3d 3c cd b2 86 bc 94 8f 4f bd 37 34 18 bd
       0.011547796 -0.01644268 -0.050674036 -0.03715917
0000f0 11 e7 03 3d 31 1e 5c 3d 83 c9 64 3c 69 9d 42 3b
       0.032202784 0.05373973 0.01396406 0.0029695875
000100 48 5b 69 bc 2a c9 53 bc 26 35 87 ba 8d 7f e7 bc
       -0.014242955 -0.012926379 -0.0010315522 -0.028259063
000110 8e 1d c4 3c 6d c4 91 ba 35 c9 73 bc ec 3a 80 bb
       0.023939874 -0.0011121162 -0.014879514 -0.003913274
000120 e1 62 e6 bb 55 7c 1b bc 4d c5 10 bb a3 f1 59 3a
       -0.0070308303 -0.009490092 -0.0022090257 0.00083139
000130 c2 7c 7c bc c2 3a 77 bb c3 e7 80 bc 6e 29 44 bb
       -0.015410604 -0.0037724231 -0.015735513 -0.002993192
000140 f5 c6 f1 bc 6b ee c5 bb 22 5f cd 3c af 42 02 3d
       -0.029513815 -0.0060403845 0.025069777 0.031801876
000150 c0 db 80 bc cf 87 7d 3c a2 4c 86 3c 3e af 59 bb
       -0.015729785 0.015474274 0.016393963 -0.0033216025
000160 f3 75 46 3b 9a 30 84 3d 70 09 9a b7 1b 6e 2f b9
       0.0030282706 0.064545825 -1.8362625e-05 -0.00016730318
000170 c1 cb c4 bc 4a 35 80 bb 20 e7 f1 bb 8a 29 a6 3b
       -0.024022939 -0.0039126026 -0.0073822886 0.00507087
000180 c1 ec 90 3c 1f 10 8e 38 7a cf d5 3d 1d 7c ad ba
       0.017691018 6.7740904e-05 0.10439964 -0.0013235841
000190 8d 58 cc 3b f5 47 97 3c 6d cb 03 3d fb de af 3c
       0.006236142 0.018466929 0.032176424 0.02146863
0001a0 6d 4b 1d bb 4e 31 31 bb 3b 56 55 3d 00 f4 48 3c
       -0.0024001256 -0.0027037445 0.05208419 0.012265205
0001b0 ab 45 05 bb 89 5d 3a bc 76 5f 1d bd 7c 01 74 38
       -0.0020335715 -0.01137484 -0.038421117 5.8175516e-05
0001c0 ef 94 a6 bc 46 43 02 bc d7 c6 df 3b 9e f0 a1 bb
       -0.020334689 -0.00795061 0.0068291235 -0.004942014
0001d0 e5 f9 cf 3c 60 51 5f bc 35 09 04 bb 81 5b a0 3c
       0.025387714 -0.013630241 -0.002014709 0.019574882
0001e0 72 6f 2c 39 db e2 ae 3a 29 ea ff bc 43 ae 41 bb
       0.00016444715 0.0013342755 -0.031239586 -0.002955333
0001f0 b6 d4 d1 3b cb 71 93 bc d6 ed 17 3b c3 27 98 3c
       0.006403531 -0.017998597 0.0023182533 0.018573647
000200 2d 1e 15 bc 91 57 32 bb 10 94 2c bb da 81 27 bd
       -0.009101433 -0.0027212838 -0.002633337 -0.04089532
000210 7f 56 3b 3c 9e 7a eb 3b 99 d1 43 bc c8 ba 91 ba
       0.0114341965 0.007186248 -0.011951827 -0.0011118287
000220 80 64 1a 3d 98 9f ad 37 1b e6 9b ba d4 01 9d bc
       0.0376935 2.0697524e-05 -0.0011894138 -0.01916591
000230 3e 70 0b 3d 77 8d 92 3d 3d 31 47 3d c8 ec 89 bc
       0.03404259 0.071558885 0.04863094 -0.016836539
000240 f5 88 c8 3a 29 24 9a 3d c8 a1 f0 3a f2 2b a7 39
       0.0015299605 0.07526428 0.0018358761 0.00031885464
000250 47 00 88 bd c6 81 61 bc 9e ec 6f 3d 80 ce da ba
       -0.06640678 -0.013763851 0.058575265 -0.0016693622
000260 8e 15 a3 3c c6 32 54 bb 03 76 fb 3b 80 0a bd bc
       0.019907739 -0.0032378896 0.00767398 -0.023076296
000270 9e 1c a1 bc fe 9c 43 bb aa e7 01 3a 48 01 08 3c
       -0.019666966 -0.0029848213 0.000495548 0.008301087
000280 f6 42 a7 3d 2c 21 69 3d a5 f7 a7 3c cb 76 01 bc
       0.08167069 0.0569164 0.020503828 -0.007901858
000290 84 19 7b 3a 03 66 86 bc 2b 70 f8 3b 00 64 04 bb
       0.0009578692 -0.016406065 0.007581731 -0.0020201206
0002a0 cc c3 f2 bc 71 99 9f bb 62 50 88 3c 86 0e e0 bc
       -0.029634379 -0.0048705866 0.016639892 -0.027350675
0002b0 ce 59 b7 3b e2 93 b0 ba 67 8a 88 3a 80 b0 82 bc
       0.0055954223 -0.0013471807 0.0010417224 -0.015953302
0002c0 cb 7b 26 bd 27 e3 5c bc 4f ba ac bc 4b fe 83 bc
       -0.040645402 -0.013481892 -0.021084933 -0.016112467
0002d0 87 8b 23 bd 28 cc 90 3b 1f e3 b4 38 ab 3d 40 bc
       -0.039927986 0.0044188686 8.6253734e-05 -0.011733453
0002e0 11 c6 38 bc a5 f8 ea bb 44 fb 86 bb 4c 91 77 3c
       -0.011277691 -0.007170754 -0.0041193087 0.015110325
0002f0 25 d9 a5 bc c0 ed f9 3c 53 d3 a9 3c 0f 3d 5d bb
       -0.020245144 0.030508876 0.02073065 -0.0033758318
000300 9a a9 b4 3b 05 95 fd 3a 0e fd 35 bc d6 e0 ca bc
       0.005513382 0.001934678 -0.011107696 -0.024765413

weight f4 [6, 5488]
000000 fc dd 0b 80 51 9c 10 80 37 4b 1b 00 b7 a4 14 00
       -1.089823e-39 -1.525444e-39 2.50654e-39 1.895798e-39
000010 8f 9b 19 00 77 b0 0b 80 20 fe 01 80 32 26 17 00
       2.351691e-39 -1.073494e-39 -1.82998e-40 2.125918e-39
000020 2a 0c 13 00 b0 69 01 00 9f 0b 10 00 f7 7d 11 80
       1.749238e-39 1.29749e-40 1.473537e-39 -1.606391e-39
000030 53 50 09 00 46 f3 06 00 ca 2b 11 00 a4 35 06 00
       8.55334e-40 6.38283e-40 1.576912e-39 5.70256e-40
000040 80 c1 14 00 36 e5 0c 80 20 c7 18 00 df db 08 00
       1.906125e-39 -1.184251e-39 2.275484e-39 8.13559e-40
000050 59 f9 05 00 bc a5 12 80 31 81 17 00 56 ae 0f 00
       5.48627e-40 -1.712493e-39 2.158562e-39 1.440072e-39
000060 45 9b 18 00 d9 b7 01 00 8d 1b 1b 00 1a b6 0a 80
       2.259752e-39 1.57788e-40 2.489442e-39 -9.8368e-40
000070 10 e3 13 00 23 31 0a 80 ac 84 10 00 da ba 13 80
       1.826329e-39 -9.35982e-40 1.516962e-39 -1.811904e-39
000080 73 e7 0d 00 cb ec 03 00 a9 a4 1b 80 91 c0 07 80
       1.27689e-39 3.60452e-40 -2.538627e-39 -7.11928e-40
000090 a0 e2 06 80 7e 07 1d 00 cb e7 00 00 68 37 16 00
       -6.32311e-40 2.665917e-39 8.3152e-41 2.040257e-39
0000a0 ec 5b 04 80 60 24 08 80 0c 36 09 00 2f c7 14 00
       -4.00317e-40 -7.47733e-40 8.45908e-40 1.908164e-39
0000b0 8d db 00 00 63 79 0b 00 4c 7f 0e 00 fd 03 0f 00
       7.876e-41 1.053736e-39 1.331362e-39 1.378963e-39
0000c0 74 93 00 80 50 3d 00 00 2a 3e 08 80 fb 1f 06 80
       -5.2896e-41 2.1995e-41 -7.56984e-40 -5.62485e-40
0000d0 56 94 07 00 dd fc 00 80 61 57 01 80 46 66 1a 00
       6.96061e-40 -9.071e-41 -1.23181e-40 2.424412e-39
0000e0 dd fa 03 00 55 87 07 00 96 b4 17 80 cd b1 03 00
       3.65499e-40 6.91396e-40 -2.176998e-39 3.3929e-40
0000f0 bc 48 01 00 7f f4 0a 80 9b 55 07 00 9e 5c 02 80
       1.17928e-40 -1.006064e-39 6.73558e-40 -2.16896e-40
000100 cd 08 06 00 7b ab 01 80 5f 4e 11 80 e0 76 0b 00
       5.5417e-40 -1.53351e-40 -1.589318e-39 1.052835e-39
000110 9d 48 0b 00 df 2c 0a 80 61 e6 0e 00 cc e2 00 00
       1.036239e-39 -9.34452e-40 1.368341e-39 8.136e-41
000120 a4 38 1a 80 24 55 09 80 a1 7a 0e 00 ef 3b 02 80
       -2.408042e-39 -8.57062e-40 1.329688e-39 -2.05171e-40
000130 0a f8 05 80 11 0a 16 80 65 72 05 00 b0 7e 02 80
       -5.48157e-40 -2.023992e-39 5.00215e-40 -2.29118e-40
000140 5e ec 02 80 a5 f5 15 00 43 31 09 00 12 5c 0d 00
       -2.68464e-40 2.016666e-39 8.44191e-40 1.22689e-39
000150 32 78 06 80 10 1d 1d 80 fe 69 06 80 da e8 1d 80
       -5.94131e-40 -2.673655e-39 -5.89036e-40 -2.746761e-39
000160 15 dc 0a 00 34 dc 11 00 82 fc 12 80 46 e2 1a 00
       9.97306e-40 1.640197e-39 -1.743622e-39 2.468895e-39
000170 7d 7e 00 00 09 d9 04 00 62 cf 17 80 bc ad 06 00
       4.5375e-41 4.452e-40 -2.186611e-39 6.13337e-40
000180 60 09 18 80 6d 90 1c 80 1b e4 15 80 2f 31 13 80
       -2.207415e-39 -2.623204e-39 -2.010374e-39 -1.762518e-39
000190 89 c4 00 80 28 4c 17 00 21 86 0e 00 7e d5 0d 80
       -7.0504e-41 2.139536e-39 1.333813e-39 -1.270448e-39
0001a0 38 ba 0c 00 dd bf 11 00 f4 d4 13 00 b6 a9 16 80
       1.168829e-39 1.630031e-39 1.821268e-39 -2.081262e-39
0001b0 7b 26 13 80 74 a6 1c 00 de 1a 14 00 ca 9e 08 80
       -1.758679e-39 2.631106e-39 1.846348e-39 -7.91647e-40
0001c0 a8 84 0c 80 1a f3 00 80 69 ed 07 00 79 c3 12 80
       -1.149614e-39 -8.7208e-41 7.28015e-40 -1.723161e-39
0001d0 0b a9 1c 00 7f be 15 00 91 e8 19 00 e0 92 08 00
       2.632035e-39 1.996883e-39 2.379317e-39 7.87373e-40
0001e0 9d f0 14 00 77 c1 16 00 69 25 17 80 1d 2d 08 80
       1.923026e-39 2.089783e-39 -2.125637e-39 -7.50868e-40
0001f0 26 0d 11 00 3c f9 08 00 14 2f 14 80 de 36 00 80
       1.56592e-39 8.24092e-40 -1.853598e-39 -1.9683e-41
000200 04 68 10 80 10 27 0b 00 6f a3 17 00 95 0c 01 80
       -1.506682e-39 1.024203e-39 2.170845e-39 -9.6349e-41
000210 47 de 0f 00 70 86 05 80 a7 71 0d 80 62 af 05 00
       1.45727e-39 -5.07405e-40 -1.234632e-39 5.22093e-40
000220 cc 10 14 80 5e 01 06 00 ce 2f 12 80 3d ab 1d 80
       -1.842736e-39 5.51503e-40 -1.670188e-39 -2.724658e-39
000230 6c f5 0b 00 e3 30 0c 00 21 a7 10 00 88 7d 12 00
       1.098231e-39 1.119563e-39 1.529322e-39 1.698071e-39
000240 96 0e 12 80 10 9b 14 00 13 df 16 00 18 c1 0f 80
       -1.658271e-39 1.892336e-39 2.100405e-39 -1.446801e-39
000250 ab 45 13 80 b9 fe 16 80 16 bd 0a 00 e6 76 0f 80
       -1.769867e-39 -2.111758e-39 9.86186e-40 -1.420185e-39
000260 80 06 01 80 8c f0 1a 80 b2 63 03 80 e5 a1 a0 80
       -9.4167e-41 -2.474015e-39 -3.1127e-40 -1.4751756e-38
000270 67 ab 0f 80 f5 64 03 00 29 40 13 00 82 6c 08 00
       -1.43902e-39 3.11723e-40 1.767891e-39 7.73609e-40
000280 67 3c 08 80 6f 62 0d 00 fa 67 14 00 6b a5 14 00
       -7.56352e-40 1.229173e-39 1.87401e-39 1.896051e-39
000290 b3 ec 12 80 a3 dc 08 80 93 8e 16 80 cd d0 02 80
       -1.73795e-39 -8.13834e-40 -2.071527e-39 -2.58575e-40
0002a0 4a c5 0a 00 c2 bb 10 00 9f 1d 0e 80 c3 2d 11 80
       9.89129e-40 1.536723e-39 -1.296323e-39 -1.57762e-39
0002b0 00 97 07 80 b4 31 0f 80 d8 cd 13 80 f1 8c 13 00
       -6.97017e-40 -1.395363e-39 -1.818717e-39 1.795435e-39
0002c0 58 dd 1a 00 84 98 0f 80 4f e0 00 00 53 6f 01 80
       2.467126e-39 -1.432245e-39 8.0467e-41 -1.31771e-40
0002d0 50 1e 15 80 ce f4 13 80 18 1b 11 80 86 70 1d 00
       -1.93942e-39 -1.832694e-39 -1.570923e-39 2.703595e-39
0002e0 92 a7 01 00 c6 58 08 00 05 76 1d 00 ff 67 0e 00
       1.51948e-40 7.6653e-40 2.705567e-39 1.323004e-39
0002f0 11 31 12 80 60 6f 10 00 8e f5 03 80 43 54 0b 80
       -1.67064e-39 1.509322e-39 -3.63595e-40 -1.040418e-39
000300 ab 3a 0d 00 34 52 1d 00 6d bf 10 00 4e b6 09 00
       1.214908e-39 2.692718e-39 1.538039e-39 8.91918e-40
000310 97 79 09 80 dd 22 03 00 f8 c2 02 00 20 fb 0f 00
       -8.70138e-40 2.88013e-40 2.53613e-40 1.467619e-39
000320 f8 d5 11 80 df 13 19 80 b0 27 02 00 ad 3b 08 80
       -1.637961e-39 -2.303016e-39 1.97908e-40 -7.56092e-40
000330 f5 16 0a 80 e0 f0 03 80 fa 11 04 00 9e 61 0d 00
       -9.2659e-40 -3.61916e-40 3.73791e-40 1.22888e-39
000340 11 c1 18 80 76 c2 0f 00 9b d9 17 00 6b 53 01 80
       -2.273311e-39 1.447292e-39 2.190279e-39 -1.2176e-40
000350 13 18 07 80 81 8d 14 80 87 18 00 80 8b 75 08 80
       -6.51485e-40 -1.887472e-39 -8.799e-42 -7.7685e-40
000360 46 b6 04 80 b7 92 1a 80 c4 69 00 80 25 d8 0d 00
       -4.3273e-40 -2.440354e-39 -3.7942e-41 1.2714e-39
000370 b1 14 00 80 2c 20 08 00 88 69 08 80 bd 33 12 00
       -7.423e-42 7.46225e-40 -7.72541e-40 1.671599e-39
000380 22 45 0a 00 35 c3 0c 00 cd 36 0d 00 99 48 06 00
       9.43155e-40 1.172053e-39 1.21352e-39 5.77056e-40
000390 fb 51 0f 80 80 71 07 00 f5 44 10 80 d5 30 0a 80
       -1.406941e-39 6.83565e-40 -1.494105e-39 -9.35873e-40
0003a0 d7 0b 1c 00 09 ea 00 00 e5 31 0b 00 c0 42 01 00
       2.575641e-39 8.3956e-41 1.028089e-39 1.15781e-40
0003b0 44 c7 09 00 cf ff 00 00 d0 b9 08 00 1b 91 0f 00
       8.98003e-40 9.1767e-41 8.01341e-40 1.429586e-39
0003c0 3b 27 14 80 49 1d 16 00 92 b9 11 80 61 5a 18 00
       -1.850783e-39 2.030886e-39 -1.627774e-39 2.236474e-39
0003d0 54 2e 03 00 88 27 05 00 e3 4e 0f 80 09 1a 07 80
       2.92126e-40 4.73359e-40 -1.405832e-39 -6.52188e-40
0003e0 3f 5f 02 00 01 0f 00 80 db 2d 06 80 21 ba 15 00
       2.17839e-40 -5.382e-42 -5.67463e-40 1.995316e-39
0003f0 35 0b 08 80 fd 07 05 80 b5 ab 04 80 84 e4 09 00
       -7.38704e-40 -4.62043e-40 -4.28939e-40 9.08495e-40

bias f4 [6]
000000 fe a1 58 a9 41 7f d6 bc 14 a3 2c bc ce 84 07 3b
       -4.810214e-14 -0.026183726 -0.010536928 0.0020678523
000010 70 2b fa 3c f3 ea df 3c
       0.03053829 0.027333712
